Computer_Vision/detect_space_full/parking-space-counter/model.pth (torch, 807924 bytes, 6 tensors)

conv1.weight f4 [32, 1, 3, 3]
00000000: f2ca dc3d 4692 ca3d a2e0 1c3e 09c3 af3e
00000010: 34d7 813e 2da0 43bd 895b 103e 6780 413e
00000020: 2f7d 483c 31bd 9d3e 56e7 63bd 3fb9 a13e
00000030: 63bd 603e b985 17be 2c06 0fbe 358c 0cbe
00000040: 158f 3f3e d962 f9bc 1d7b 82bd 7ec5 54be
00000050: f1bc a0be a26f 203e 2d36 52bd 7964 86bd
00000060: e9e8 d5bd fa26 1dbe f70d ff3d 0ca7 5abe
00000070: 53c4 57be 81e4 8abe d4a9 c73d b39d b4be
00000080: 4eef a5bd 8988 66bb 31bf 1cbd 8909 d83c
00000090: bd07 2b3e ec8d f83c a65e 8d3d 0a62 8c3e
000000a0: 7b13 18be 7c88 7d3e fe5f 5dbe 6aba 983e
000000b0: 2b36 aa3d f7e2 933e 0d10 813e 67ec e83d
000000c0: 65e1 1abe 6883 a03d 372a 3dbe 24b6 2d3e
000000d0: 35a6 373e d38a 3a3e 2891 cfbd 57b8 a0be
000000e0: 5b10 efbd bae8 26be 9c6e 9b3e ccc0 7b3e
000000f0: aa75 af3d f501 16be 7bc5 8e3e adf3 703e
00000100: d53e 0abe 4a7b fe3d 9040 bd3e 9846 133e
00000110: c112 893e 3265 69be ea6f c83c 6b74 90be
00000120: d11b 623e ad33 733e e3ff 9abc 1f94 023e
00000130: 076e c93c 5cb1 543e 552d 0d3e 7a2f 66be
00000140: c649 b33e 72fe 19be 5b4b 38be e998 9f3e
00000150: f682 1f3e 9177 6b3e 57e4 c13d 32fe 0ebe
00000160: 7c6f a5be 5585 033d 7b30 7d3e ae08 223e
00000170: d213 543e 4d20 7bbe 0205 72bd 18d2 70bd
00000180: 2286 27be 7a84 a43e f9c8 a33e c567 d43d
00000190: e81f 293e a32a 67be 257b 3d3e 9db1 683d
000001a0: b8b6 353e 330a 863e ea5f 883e 928b b3bd
000001b0: b976 43be faa4 a2bd 8e06 9d3e dfac aebe
000001c0: 8693 a33e 9d4d 7e3e 531c 87be dc9c 2f3d
000001d0: bb48 333e f6d6 b4bd 84e5 9ebe 6cc2 903e
000001e0: 251d 51bd be46 693e 9535 51be 8cab a3be
000001f0: 4145 9c3e 371f 9c3d 73e6 a8be c5ab f7bd
00000200: 50ed 2b3e f6e8 d8bd fdae 1dbe e502 a83e
00000210: 8943 933b a525 62be 5e6b b6be 53fc cc3d
00000220: 1478 c2bd c0bc d0bd 7264 4f3e 17b2 6cbe
00000230: cdba 773d 848e 5abe 3973 3fbd 8ac4 22be
00000240: a2fd 833e b435 e23d e4b6 54bb 8650 99bd
00000250: f068 adbd 1077 a13d 064b 9d3e 7cb3 edbd
00000260: 9b90 883e cd06 923c 3885 7ebe 0d73 783e
00000270: 0786 03be 3032 01bb e7e1 35be f572 0c3e
00000280: 8678 2bbe 47b6 483e f11f 5b3e 8061 8dbe
00000290: c5a8 a0be 5ace b5be 8c3e 79be 108b 18bd
000002a0: 5409 86be 11bd a73d 6ef5 47be 8f61 15be
000002b0: bdae f33b 0378 05bd 420d 193d fed9 613e
000002c0: b68d 8d3e 39bd 983e 939f 543e c4d3 c23d
000002d0: 83ad 8fbe b89f 593e 9ced 57be 4ac4 3cbe
000002e0: e210 2fbd 93d4 28bd aaf5 953e b94f 943d
000002f0: 0591 8d3e 5666 a2be 18ca 03be 9d21 4dbe
00000300: b161 583e 4753 833e 4807 843d 0d1b aabd
00000310: 4877 81be c5da 2f3e 212a 903c b881 2abe
00000320: 7fd3 dd3d 5161 ffbd 72e0 ee3d 7a29 97be
00000330: 8b0f 4dbc 84fb a6be 4e58 37be 81d4 47be
00000340: d228 b53e 46da 64bd 0a91 313e 661a 2c3e
00000350: d97d ae3e 6568 18bd cf0d a3be 310e 953c
00000360: 3699 043e 9a81 acbe 60fb 823e 75c2 b8be
00000370: faaf 49be 34c1 923e e049 1a3e 7d0b 97bd
00000380: da64 5a3e d03b b5be 4b73 37be 1c8c 99bc
00000390: 2d38 25bd b0b2 88be d5e7 e83d 4171 15be
000003a0: fbe0 b73d 6330 0d3e 3995 89be 67f3 7f3e
000003b0: 5852 87be f35a b6bc 5cc6 213d 4e9e 853e
000003c0: 5304 f9bd 4130 e0bd 2714 31bd 543b a9bd
000003d0: f9dc f7bd 9edf 873e 133a 4c3e 266d 9fbe
000003e0: 589d 68bd bcf4 85bd e961 81be 95d4 973e
000003f0: 797b 9a3c 2f91 bd3e be13 573e b915 8abe
0.10780896 0.09891181 0.15320066 0.34328488 0.253595 -0.047760177 0.14097418 0.18896638
0.012236877 0.30808404 -0.05564054 0.31586644 0.21947245 -0.14797105 -0.13967198 -0.1372536
0.18706925 -0.030442642 -0.06371138 -0.20778462 -0.3139415 0.15667585 -0.051321197 -0.065621324
-0.10444815 -0.153469 0.124538355 -0.21352786 -0.21070985 -0.2712746 0.09749189 -0.35276565
-0.08102284 -0.0035176596 -0.03826827 0.026371734 0.1670217 0.030341111 0.069028184 0.27418548
-0.14851181 0.24759096 -0.2161865 0.29829723 0.08311113 0.28884098 0.25207558 0.11373215
-0.15125044 0.07837564 -0.18473135 0.16964012 0.17934497 0.1821702 -0.10135108 -0.3139064
-0.116730414 -0.16299716 0.30357826 0.24585265 0.085673645 -0.14649184 0.2788504 0.23530455
-0.13500531 0.12425859 0.3696332 0.14382398 0.2677212 -0.22792509 0.024467427 -0.2821382
0.22080924 0.23750181 -0.018920844 0.12751816 0.024588598 0.20770782 0.13786824 -0.22479048
0.35017222 -0.1503847 -0.17997496 0.3117135 0.15577301 0.2299483 0.094673805 -0.13964155
-0.32311618 0.032109577 0.24725525 0.15823624 0.20710686 -0.2452404 -0.059086807 -0.05879411
-0.16359761 0.32132322 0.31989267 0.10371355 0.16516078 -0.22574858 0.18504007 0.05681001
0.17745483 0.26179656 0.26635677 -0.08766855 -0.19088258 -0.07941623 0.30669063 -0.34116265
0.3194849 0.24834295 -0.26388797 0.042874202 0.17508213 -0.08830063 -0.31034482 0.28273332
-0.051053185 0.22780892 -0.20430596 -0.31966817 0.30521587 0.07623141 -0.3298832 -0.12093309
0.16789746 -0.10591309 -0.15398784 0.32814708 0.004494135 -0.22084673 -0.3562879 0.100090645
-0.09495559 -0.10192251 0.2025316 -0.23114811 0.06048088 -0.21343428 -0.046740744 -0.15895286
0.25779444 0.11045399 -0.0032457644 -0.07486062 -0.08467281 0.078840375 0.307213 -0.116064996
0.26672825 0.017825508 -0.24855506 0.24262638 -0.12844096 -0.0019713752 -0.17761956 0.13715728
-0.16745195 0.19600783 0.21398903 -0.2761345 -0.3137876 -0.35508996 -0.24340266 -0.037241995
-0.26178992 0.081903584 -0.19527218 -0.14587997 0.007436602 -0.032585155 0.03736616 0.22055814
0.2764718 0.29831865 0.20763998 0.09513047 -0.28062066 0.21252334 -0.21086735 -0.18434253
-0.04274071 -0.04121835 0.2928899 0.072417684 0.27649704 -0.317187 -0.12870061 -0.20032354
0.21131016 0.25649473 0.06446701 -0.08305941 -0.25286317 0.17173298 0.017598214 -0.16651046
0.10831355 -0.124697335 0.11663903 -0.29523832 -0.012515913 -0.32613766 -0.1790478 -0.19514658
0.35382706 -0.055872224 0.17340484 0.16806945 0.3408039 -0.037208933 -0.31846473 0.018195244
0.1294907 -0.33692628 0.2558241 -0.3608586 -0.19696036 0.28663027 0.15067244 -0.07375238
0.21327534 -0.35397196 -0.17915075 -0.018743567 -0.040336777 -0.26698828 0.113723435 -0.14593984
0.089784585 0.1378799 -0.2687166 0.24995194 -0.2643001 -0.022260165 0.03949581 0.2609734
-0.12159028 -0.10946704 -0.04323211 -0.08263269 -0.12102694 0.26537794 0.19944029 -0.3113796
-0.05679068 -0.0654082 -0.25270012 0.29654375 0.018857704 0.3702483 0.21003625 -0.26969698

conv1.bias f4 [32]
00000000: 73b6 113c aac2 943d 353a b13e fb19 3bbe
00000010: 7bdc 0c3e 6d5c b23d e0a3 05be d9a9 8bbe
00000020: 7f6e b8bc b55e 4ebc b9ad 18be b5bf 983e
00000030: 957b 2c3e 6ef1 423d 6e16 4bbe f6c9 913e
00000040: 2fef 8abd bc0d 8c3d 59ec 26be 353c 77be
00000050: 019c 9ebd 495a 123e 0c24 01bd 3802 5fbe
00000060: 9809 543e 57b0 113e 3bad 1c3e bc00 c5bd
00000070: 66b2 85be 4f60 a73e 2619 84be d2c2 de3b
0.008893597 0.07263692 0.3461472 -0.1827163 0.13755982 0.08709035 -0.13050795 -0.2727802
-0.022513626 -0.012595822 -0.1491002 0.2983376 0.16844018 0.047593527 -0.19832775 0.28474396
-0.06783902 0.06838557 -0.16301097 -0.24144061 -0.07744599 0.14292254 -0.031528518 -0.2177819
0.20706785 0.14227425 0.15300457 -0.09619281 -0.2611267 0.32690665 -0.25800437 0.0067981267

fc1.weight f4 [128, 1568]
00000000: b051 83bc 574d 8f3c 1529 0abb 53fe 783c
00000010: 9623 723c c835 c8b9 5df4 6f3c b0f7 a7bb
00000020: c43f 5fbc 65a4 c6bc 071b 54bc de71 813a
00000030: 57d6 6b3b ca1a 523c c2f8 7a3c 060e 96bc
00000040: c5df 38bb 45f3 513c 3874 e4bc b944 fd3b
00000050: be47 3d3b 5a0f 933c 4be1 573b e45c 3f3c
00000060: 67ef 80bc 4db0 5f3b 913b b53b b0f4 f83a
00000070: 4546 ccbc 332b 43bc 47c3 013a 0d1a 88bc
00000080: 649d f33b f75e 823c 1fba 9f3c 85ec 993c
00000090: 2b49 f83b 006c 653c cf46 b0bc a47b a73b
000000a0: 64a2 e73b 5c9d 85bb 12a8 233c 418b 723c
000000b0: 16ee 1cbc 636a 413c e928 453b 7bf1 d5bb
000000c0: 18f5 ef3b 9da9 aebb 4c5b 7a3c 3035 8dbc
000000d0: 2308 fd3b 3dbf ebbc 3438 55bc f8ef cdbc
000000e0: 4800 7b3c 6868 923c 0dc1 233c 4d14 503b
000000f0: b1f5 afbc 26cb dc3b d1c6 8b3c a910 abbc
00000100: e77b afbc b95e 10bc 1648 08bc 984d 893c
00000110: 3f78 993b 1c77 ec3a aa35 a53b 030e 2b3c
00000120: b47b 2cbc cea5 a93c bc79 34b9 479b 85bc
00000130: a0b7 e83b ec77 c3bc ccfb 823c 4a31 b33b
00000140: 03ec 95bc 82c8 83bc fa1b debc b6ae b9bc
00000150: 4f2d 6d3c 7828 17bb a771 313c ca72 7b3c
00000160: ab0e babc b8e1 783b f75f dabb 108e cebc
00000170: fe96 9f3c 427f ecbb 7002 383b 8292 7cbc
00000180: f88c 803c f781 6b3c e124 4fbc 02ca 9ebc
00000190: 0f4e 9ebc 39ad 203c 1dff 9dbb 39a7 3d3c
000001a0: 0538 4cbc a237 2a3b 0e2e b63c bd7f f63c
000001b0: e902 043c 7d99 483c f709 2ebc cd05 273c
000001c0: 6395 b43c 8901 3f3c ac8e 47bc c5e6 123c
000001d0: ccce 263c ca91 a13b 80e3 8ebb 667f 53bc
000001e0: 4bf3 19bc e19e 8dbb d4cc 713c 22a3 71bc
000001f0: 7dda ad3c 066c 323c f98a 943a bc9b ebbb
00000200: 8126 ad3c 374c a53c 1ec3 7aba 72ce 30bb
00000210: 78fb b6bb 0254 85bc 683f bb3c 921a 3fbb
00000220: d7b6 3c3c 7fb6 a4ba 45b9 46bc 2491 e03c
00000230: 17c2 13bc 3972 4bbb aa65 86bc 4b3c c13c
00000240: 8bfe 673c 8636 37bb 82e4 d93c b0cc b4ba
00000250: a1bb a0bc d4ae 893c b45a 703c 2ebc 813c
00000260: 5497 8fbb 799c 8bbc b7bc f9bb cf6b b03c
00000270: 5cf3 763c f7da d03c 67d6 e1bb 0545 153c
00000280: 08d0 f03b 6b9a c93c be18 37bc a3f5 2d3b
00000290: 59ea 083c 89a9 63bb d795 77bb 1e8e 20bc
000002a0: 4a62 bb3c c694 c23c 0af8 2c3c abe7 403b
000002b0: ff59 5bb9 9bd4 feba 164d b8bc 28c6 253b
000002c0: 702a 4c3c bf23 09bc f85f e93b cf3e 42bc
000002d0: 1aa8 24bc c3b8 27bc 987f 5f3c c78f 673c
000002e0: 7081 843a 3874 a53c e9ae 6bbc 00e5 5f3b
000002f0: 1088 163c dc77 84bb 9401 673c 00ae 303b
00000300: adb6 9fbc b207 983c 706f 15bc e4bd 5cbc
00000310: 42c3 5dbc b707 c5bb ae6a 9dbc a62c 4fbc
00000320: a08e a03c 8a7f a0bb 113c e73b a780 4d3c
00000330: 4f1f 173c 39da dfbc 65f4 36bc 0339 95bb
00000340: eddd 8b3c ee9b 873c 3f0f 5cbc 295c 84bc
00000350: 472a b23a 81ae 313c 0746 f43b e114 a3bc
00000360: 350f b8bc 5b20 9abc cae6 263b c038 54ba
00000370: a09e d6bc 9b88 a4bc 60d8 59ba 610e 3dbb
00000380: 47e7 4cbc ee12 3ebc 4388 2abb d2d9 7e3c
00000390: 229c abbc 3314 5d3b 0e9b 14bb a017 fc3b
000003a0: 9f4e 9abb ca5e 73bc e56b 19bc 8a41 f13b
000003b0: 238a 883c 211f b9bc e610 09bc 0adf 5d3c
000003c0: 7831 6dbc e5de 83bc 2d6c 3abc 6890 9b3b
000003d0: 224d dcbc 08c3 283c 093b f23a dff8 34b9
000003e0: e1bf cabc 4c99 32bc 8e4c 06ba c932 c8bc
000003f0: dec3 833c c998 fe3b 88dc c03b 86d0 923b
-0.016030163 0.017492933 -0.0021081616 0.015197354 0.014778992 -0.00038187043 0.014645663 -0.005125962
-0.013626043 -0.024248311 -0.012945897 0.0009875854 0.003598591 0.01282377 0.015318098 -0.018317234
-0.002820955 0.012814348 -0.027887449 0.0077291396 0.0028881873 0.017951656 0.0032940682 0.011679862
-0.015739156 0.0034132183 0.0055307825 0.0018993821 -0.02493585 -0.011912155 0.0004950058 -0.016613984
0.007434534 0.015914423 0.01949793 0.01878954 0.0075770817 0.0140028 -0.02151814 0.0051111747
0.007068919 -0.0040775966 0.009988802 0.0148037085 -0.0095782485 0.01180515 0.0030084199 -0.006529031
0.0073229186 -0.005330278 0.015280556 -0.017237276 0.0077219172 -0.028777713 -0.013013888 -0.02513884
0.015319891 0.01787205 0.009994757 0.0031750381 -0.02147946 0.0067380844 0.017062576 -0.020881968
-0.021421386 -0.008811646 -0.008317968 0.016760632 0.004683524 0.0018040868 0.0050417976 0.010440352
-0.01052754 0.020708945 -0.00017211487 -0.016309394 0.007101968 -0.023860894 0.015989207 0.005468522
-0.018301016 -0.01608682 -0.02711295 -0.022666316 0.014476134 -0.0023064893 0.0108303195 0.015347192
-0.022712072 0.0037976336 -0.006664272 -0.025214225 0.019481178 -0.0072173188 0.0028077625 -0.01541579
0.01569222 0.014374248 -0.01264307 -0.019383434 -0.01932433 0.0098069245 -0.0048216716 0.0115755135
-0.012464528 0.00259731 0.022238757 0.030090207 0.008057334 0.012243626 -0.010622493 0.010194254
0.02204389 0.011658081 -0.012180012 0.008966153 0.01018114 0.0049307095 -0.004360616 -0.012908792
-0.0093963845 -0.0043219184 0.0147583075 -0.014748367 0.021222347 0.010890013 0.0011332921 -0.007190196
0.021136524 0.020177944 -0.0009565818 -0.002697852 -0.0055841766 -0.01627541 0.022857383 -0.0029160124
0.011518202 -0.0012566595 -0.012129133 0.027412958 -0.009018443 -0.0031043424 -0.0164059 0.02358832
0.014159809 -0.0027956082 0.026598219 -0.0013793912 -0.019620718 0.016806997 0.014670063 0.015836801
-0.0043820534 -0.017042385 -0.0076213735 0.021535782 0.01507267 0.025495036 -0.006892014 0.009110694
0.007349018 0.024609765 -0.011175333 0.0026544116 0.008356654 -0.0034738502 -0.003777852 -0.009799508
0.022874016 0.023752581 0.010557184 0.002943496 -0.00020918994 -0.0019442023 -0.022497695 0.0025295112
0.01246129 -0.008370339 0.007122036 -0.011855795 -0.010049844 -0.010236922 0.013641261 0.0141334
0.0010109376 0.020197019 -0.014384964 0.0034163594 0.009187713 -0.0040426087 0.014099497 0.002695918
-0.019496286 0.018558357 -0.009120807 -0.013473008 -0.013535323 -0.0060128826 -0.019215908 -0.012644922
0.019599259 -0.0048980163 0.007056721 0.01254288 0.009223773 -0.027325736 -0.011166667 -0.0045539155
0.017073596 0.016553845 -0.013431369 -0.016157227 0.0013592922 0.010844828 0.007454637 -0.019907417
-0.022468189 -0.018814256 0.002546715 -0.00080956146 -0.026198685 -0.02008467 -0.00083101355 -0.0028847682
-0.012506313 -0.011601193 -0.002602116 0.015554862 -0.020948473 0.0033733964 -0.0022675428 0.007693246
-0.0047090794 -0.014854142 -0.009364103 0.007362549 0.016667431 -0.022597851 -0.008365845 0.013541946
-0.014477126 -0.016097495 -0.01137833 0.004747439 -0.026892249 0.010300405 0.0018480729 -0.0001725885
-0.024749698 -0.010900807 -0.0005123102 -0.024438279 0.016084608 0.0077696783 0.0058856644 0.0044804243

fc1.bias f4 [128]
00000000: b5d1 8c3c d2f0 73bc 7897 023b 5735 f2bb
00000010: 7490 c3bb c62c 8e3c 0e4e 3b3c 1b1e e4bc
00000020: 70a2 17bb bef7 95bc 7c61 fbbb 94d4 b0bc
00000030: 7aca d6bc a739 913c da78 c03b 9bf1 19bb
00000040: 14f1 14bc 5634 abbc d781 8abc b53d 88bc
00000050: 40e9 933b 0d6e 8d3c 80f7 65bb 6cb7 c53c
00000060: 4380 0c3b b178 e13c adac 91bc a00c d03b
00000070: a210 963c 4c34 9cbb 80e2 b8bb f1a2 c4bb
00000080: a2a8 c73c 5c32 74bc a358 90bc 9fab f03b
00000090: 708c cf3c 225a a0bc d085 183c 5abb 5a3c
000000a0: 9fb6 7fbc fedf d5bc a6ca a1bc 6ec7 c1bb
000000b0: 1078 72bc 6203 423c 72ba 163d 2e6f 8fbb
000000c0: e6db 9a3a 7a14 43bc f983 62bc a6d7 5d3c
000000d0: db04 a43b eb2c ae3c 34ff 013c 3584 2d3a
000000e0: 41d6 87bb 119c c13c b56c 53bc 00c0 c239
000000f0: ddf8 b53b af3a 21bc 6f1d 05bc 48b7 8f3c
00000100: ac6d 0f3c f0ae 40bc 057f a3bc 4ecc bc3a
00000110: 302f 643c bd6a e23b df5d 27bc c499 883c
00000120: 13af 7bbb 246c 31bc e30d 29bc 6cb7 b43c
00000130: b80f 453c d05d 853c 981b 1abc d6b5 89bc
00000140: 9395 8b3c bbf5 01bc 1640 ed3a f400 343a
00000150: b28d 4abc 74dc 81bc bb4a 08bc 5f14 23bc
00000160: 4069 683c 78a4 0c3d 5ca6 48bb aea7 863c
00000170: 97d5 54bc 2dde 67bc 86f4 ae3c 0038 363a
00000180: 86c7 8fbc 5ed5 b1bc b96f 88bc 0e52 2f3d
00000190: 7313 cebc c2f6 23ba 8439 8a3c 700a 77bb
000001a0: 4c8d 573c 696b ce3b 3831 3e3c ca56 9dbc
000001b0: 1056 f6bb fed2 babc 410d 153c eb5f a4bc
000001c0: 07a4 e1bc c7f4 41bc 5f1d d03c 03e7 8b3c
000001d0: fdb0 c8bc ee65 9e3a db36 fabc 3f7d e73b
000001e0: c7d6 bcba 4bd6 a2ba 41a1 26bc 5ba7 0c3c
000001f0: f73b 1ebc ed05 023d 3cee 1cbb 36ff 28bc
0.01718984 -0.014888959 0.0019926708 -0.0073916125 -0.005968148 0.017355334 0.011432184 -0.027846387
-0.0023137592 -0.01830661 -0.007671533 -0.02158574 -0.026219595 0.017727686 0.0058737816 -0.0023489955
-0.009090681 -0.02089898 -0.016907616 -0.016630987 0.0045138896 0.01726439 -0.0035090148 0.024135314
0.0021438755 0.02752337 -0.017782534 0.0063491613 0.018318478 -0.0047669765 -0.0056422353 -0.0060008694
0.024372403 -0.014904585 -0.01762039 0.0073446776 0.02533552 -0.019574229 0.009309247 0.013350332
-0.015607505 -0.026107784 -0.01974995 -0.0059136664 -0.014799133 0.011841627 0.0367989 -0.0043772673
0.0011814802 -0.011906737 -0.01382541 0.013540184 0.0050054616 0.021261653 0.00793438 0.00066191267
-0.004145414 0.023633989 -0.012904336 0.00037145615 0.0055533485 -0.009840651 -0.008124693 0.01754345
0.008754175 -0.011760458 -0.019958029 0.0014404149 0.013927266 0.006909697 -0.010215252 0.016674884
-0.0038403913 -0.010829005 -0.010318252 0.022060119 0.012027673 0.016280085 -0.009405993 -0.016810339
0.017039096 -0.007932122 0.0018100764 0.0006866597 -0.012362884 -0.01585219 -0.008318598 -0.009953587
0.01418525 0.034336537 -0.0030616736 0.016437378 -0.012990377 -0.014152092 0.021356832 0.00069510937
-0.017551195 -0.021708187 -0.016654836 0.042802863 -0.025155758 -0.00062547263 0.016873129 -0.003769543
0.013156246 0.0062994254 0.011608414 -0.019206423 -0.0075175837 -0.022805687 0.009097398 -0.020065269
-0.027544035 -0.011838145 0.02540463 0.017077928 -0.024498457 0.0012084821 -0.030543735 0.007064491
-0.001440727 -0.0012423483 -0.010170282 0.0085848225 -0.009657851 0.031743933 -0.002394571 -0.010314753

fc2.weight f4 [2, 128]
00000000: 8780 89bc 9a7a 8e3c 388e 19bd a450 a4bd
00000010: 8d77 883d a8f2 c4bd 5935 2fbd d226 9cbd
00000020: b6ec dfbc 153c 4fbb 6b68 aebd f00d 67bc
00000030: 1109 5b3c d766 2bbd 5b85 bebc 9de2 4ebd
00000040: ed2e ac3d 1639 2bbd 7b32 39bc 8219 cfbc
00000050: 37ba f8bb 4763 9bbd 20da 7bbb b854 79bc
00000060: 15fa 733d 9078 15bc 4faa b03d a02f ffbc
00000070: 9066 30bd 14f6 c6bc c295 edbd f03b 023c
00000080: 6a24 8fbd bfaa 14bd cd89 fd3c 6d37 a1bd
00000090: 5a32 c2bd 536d 8abb aec0 5c3d 9953 65bd
000000a0: b683 6d3d e1ab 31bd 205f a43b 74e4 8ebd
000000b0: 1707 52bd 2897 9e3d 4d91 aabd 6866 8abc
000000c0: da25 da3d 8ee3 3d3d 15ea 883d d049 7cbd
000000d0: 17a0 233d 540b a6bd d18a ccbd b3e9 0a3d
000000e0: ee9d 213d a7dc e43d 08e9 09bd 7423 f23c
000000f0: cda1 0abd 1efd f53c 6e07 78bd 7c11 abbd
00000100: 0187 3dbd b695 bebc a9fa 90bd d64e 11bb
00000110: 85cc 003d 5062 313d 77df 393d 4f41 6bbc
00000120: 8340 32bd ab35 fdbc 68c0 b13a 5838 fa3c
00000130: 4997 2fbd e4b7 0b3d 5836 353c 5f66 09bc
00000140: 43cd a0bd 1795 0a3d 8872 e63d 7962 353d
00000150: f2bd 1d3d 5ae9 a1bd 469a f937 8a98 2ebc
00000160: 90e3 d73b 7ecd 5a3e 06ee 9a3d 4052 a6bc
00000170: b4a6 00bc ef2a 39bd 00f0 f43a b0be d4bb
00000180: 09e7 8d3d 0c77 9d3d 48b9 2fbd 4a6b 2cbe
00000190: 4db0 1f3d dffa d73c d6a4 253d 2ddc e83b
000001a0: d65e c9bd 9ec5 b23c d64a 653d 1f4d 9d3d
000001b0: 577c 9bbd c5d6 75bd 65da 6c3d 8f74 23bd
000001c0: 1c83 7b3d fdd3 983d 3191 1d3d 3ef8 8fbd
000001d0: 65a1 983c a7c8 b53d 48c2 f0bc 3984 323d
000001e0: 5b35 b9bd 4a14 8c3c 71d4 a6bd dc36 d93d
000001f0: 46c0 673d 16ef d7bd fb36 9b3d bc6e 88bd
00000200: 88e8 cbba f68f d1bb ce99 453d a2ea 953d
00000210: b534 943d 3774 e53c 3bce c23d ff27 5dbd
00000220: b632 ed3c c48d 8a3c 7037 863b 225e 3d3d
00000230: 2cb2 973c 5162 ec3d b80a 943d f5ee eb3d
00000240: ab2f ad3d aef7 ad3d f291 a43c 51bf e73b
00000250: 41d0 9c3d 23a2 80bc b0f6 2d3c 0896 5bbc
00000260: b5af 933d cd59 f13d 9ba9 e0bd 787c a9bc
00000270: ac51 4f3c 40c2 a23a 6d36 b83c 787e 99bd
00000280: 8fc7 043d d393 86bd f528 93bd d407 f3bc
00000290: cd9d 163d 9124 a83b c102 69bd 063f 973c
000002a0: 1816 33bc da4b 933d 6ec9 283d ba08 adbc
000002b0: f84d 10bd d766 b9bc e289 a13d ab9c d6bc
000002c0: 8c25 84bd 95df b23d 51af 9bbd 0f02 b93c
000002d0: 7c6a 93bd bc5d 073e aef8 bb3d eeb2 94bd
000002e0: d3c1 01bd 6f2f 623c 6e94 0c3d 708b 80bc
000002f0: c152 a53d cfa1 0cbd 3f5e 8a3d d63b b43d
00000300: a875 e13c 73ff a03d 2334 473d f8bc ba3d
00000310: 7de2 1cbd fc5d df3d 0095 f63d dc0a 2fbd
00000320: 1b7a 003d 6eb8 c83d d772 12bc 60c7 263c
00000330: 8ca1 96bd f171 a43d 5da1 943d 396a 2c3b
00000340: c953 6abc eacc 93bd e651 1d3d 29bd f3bc
00000350: ad94 b33d 8ebe 9b3c af44 8e3d b17a 92bd
00000360: bf0f 69bd 7931 8dbe 21f8 a2bd 6201 5b3d
00000370: 0c93 73bb 1203 95bd ba53 153d d7f3 ac3d
00000380: d343 76bd 3149 20bc 4092 d0bc 4ea5 8d3e
00000390: 1885 9a3d 2aa8 8abd 2c0a d83c f061 433d
000003a0: 94fb f1bc 8455 c0bc ac07 a2bd c603 23bd
000003b0: 335a c43d 0676 523d 2f17 67bd 16d7 9fbd
000003c0: ad8d 8b3c 2588 b4bd 8490 bbbd 88b1 033d
000003d0: b8e2 f93c 12c6 ea3b adcf e5bc bb97 c0bd
000003e0: a51f 88bc b127 af3d 3e1b afbd d4e2 cdbd
000003f0: f5fe 11bd a3ee df3c 897e d3bd c53a a73d
-0.01678492 0.017392445 -0.037489146 -0.080231935 0.066634275 -0.096165955 -0.042775486 -0.07624592
-0.027334552 -0.0031621505 -0.0851601 -0.014102444 0.013368861 -0.041846123 -0.023256948 -0.050509084
0.08407388 -0.04180249 -0.011303539 -0.025280718 -0.007590558 -0.07587295 -0.0038429573 -0.015217952
0.05956467 -0.009122983 0.08626234 -0.031150639 -0.04306656 -0.024287261 -0.1160083 0.0079488605
-0.06989367 -0.03629565 0.030949498 -0.078719 -0.0948226 -0.0042244582 0.05389469 -0.055987928
0.057986937 -0.043376807 0.0050162226 -0.06977168 -0.051276293 0.077436745 -0.08328495 -0.016894534
0.10651751 0.04635959 0.066852726 -0.06159383 0.039947595 -0.081076294 -0.09987415 0.03391428
0.039457254 0.111748986 -0.0336695 0.029557921 -0.03384571 0.030027922 -0.06055396 -0.08352944
-0.046271328 -0.023264747 -0.0707906 -0.0022172234 0.031445045 0.04330665 0.04537913 -0.0143588325
-0.043518554 -0.03090938 0.001356137 0.030544445 -0.042868886 0.03411092 0.01106032 -0.008386224
-0.078516506 0.03383359 0.11252314 0.044283364 0.038511224 -0.079058364 2.9754952e-05 -0.010656485
0.006588407 0.21367452 0.075649306 -0.020302892 -0.007852245 -0.04520696 0.0018687248 -0.0064924583
0.06928832 0.07688722 -0.042901307 -0.16837803 0.038986493 0.026364742 0.040440403 0.007106325
-0.09832542 0.021822747 0.055979572 0.07680725 -0.07592075 -0.060019273 0.057825465 -0.03990608
0.061404333 0.074623086 0.038468543 -0.0702977 0.018631646 0.08876162 -0.029389516 0.04358313
-0.0904338 0.017099518 -0.08145989 0.10606167 0.05657985 -0.10543649 0.07578846 -0.06661746
-0.0015556971 -0.0063953353 0.048242383 0.07320143 0.072366156 0.028009517 0.095119916 -0.05399322
0.028954845 0.016913302 0.004095964 0.04623235 0.018517576 0.1154219 0.07228607 0.11520187
0.084563576 0.08494507 0.020089123 0.0070723672 0.07656909 -0.015702313 0.010617897 -0.013402469
0.07211248 0.11784706 -0.1096985 -0.020689234 0.012653749 0.001241751 0.02248689 -0.07494825
0.032416876 -0.06571164 -0.07185546 -0.029666819 0.036771584 0.005131312 -0.056887392 0.01846267
-0.0109305605 0.07192202 0.041207723 -0.021122325 -0.035230607 -0.022632046 0.07887627 -0.026197752
-0.06452474 0.08734051 -0.07601798 0.02258399 -0.07198045 0.1321935 0.09178291 -0.07260691
-0.031678986 0.013805254 0.03432124 -0.015691489 0.08072425 -0.034334 0.06756257 0.08800475
0.027521923 0.07861223 0.048633706 0.09118074 -0.038301934 0.10906598 0.12040138 -0.042734966
0.03136645 0.09800802 -0.008938513 0.010179371 -0.07355031 0.08029545 0.0725734 0.002630843
-0.0143022025 -0.07216819 0.038408183 -0.029753285 0.08768592 0.019011762 0.06946694 -0.07152308
-0.056899782 -0.27576807 -0.07957483 0.053468116 -0.0037166504 -0.07275976 0.0364568 0.08444946
-0.060123276 -0.009783075 -0.025460362 0.2766518 0.07544917 -0.06770356 0.026372038 0.047700822
-0.029538907 -0.023478277 -0.079116195 -0.03979852 0.09587517 0.051382087 -0.056418594 -0.07804696
0.01703533 -0.0881503 -0.091584235 0.03215173 0.030503616 0.007164725 -0.02805313 -0.0940394
-0.016616652 0.085524924 -0.08550118 -0.1005303 -0.035643537 0.02733547 -0.10326869 0.08165506

fc2.bias f4 [2]
00000000: e2c5 a0bc 0728 463d
-0.019625608 0.048378017
