Computer_Vision/detect_space_full/parking-space-counter/model.pth (torch, 807924 bytes, 6 tensors)

conv1.weight f4 [32, 1, 3, 3]
0.3237079 0.2599062 0.043200217 -0.118246146 -0.24835654 0.38484 -0.24717033 -0.2815785
-0.026754925 -0.15237845 -0.1741808 0.09105748 0.0024762317 0.1127292 0.32873508 0.32223928
0.31934148 0.016867343 -0.13966754 -0.007513341 -0.09304272 0.044394787 -0.1640332 -0.09719506
0.039736528 0.03661112 -0.22337964 0.35484555 -0.012356494 -0.12929332 0.26948693 0.13534513
-0.20860977 0.32334292 0.058864404 -0.054782063 -0.026354933 -0.044577967 0.03428953 -0.22014655
0.18628204 0.094132416 -0.1423118 -0.090574525 -0.17104071 0.15758201 -0.025240824 0.051697716
-0.062436808 0.13075906 0.030942237 0.30680978 0.13113587 0.20254867 0.36062464 0.1173993
0.16345873 0.111364156 -0.030727876 0.045557126 0.055138756 -0.08444423 -0.031592973 -0.002862883
0.17280138 -0.1814896 -0.0016414188 0.33591083 0.18145548 -0.06161694 -0.01871613 -0.009368248
-0.14717674 0.20196477 -0.11821711 0.16940418 -0.32438454 -0.23362212 -0.15015149 0.10204616
0.12332308 -0.25440976 0.26818106 0.34831154 -0.046131577 0.16411741 -0.0452526 0.3168155
0.16103433 0.21418983 -0.105991915 -0.14235109 -0.0717711 -0.26904976 0.056025676 0.14016041
0.24982691 -0.186294 -0.1751819 0.02895132 -0.1531092 0.013165273 -0.23328966 0.20467855
0.05192028 -0.2874117 -0.19344643 -0.0051690773 -0.34465167 -0.24999522 -0.06815203 -0.28043768
-0.2822309 -0.18312739 0.07207366 -0.024820596 -0.19315465 0.18658987 -0.27560437 -0.17697236
-0.068100594 0.29050052 0.16752404 0.018925931 -0.22702292 0.30654022 0.325351 -0.21278507
-0.27704996 0.032384776 0.24054506 0.108404785 0.100753054 0.12685989 0.13961263 0.031828996
0.18553449 -0.16449934 -0.286545 0.26545542 -0.0018825693 0.0763163 -0.14941408 -0.29218096
0.2181994 0.10355727 0.2886086 -0.00097246625 0.33993623 0.037687704 0.22646545 0.2346846
0.1637818 -0.33227226 -0.32583392 0.08588143 -0.2615278 -0.2942783 0.17910294 0.14061064
-0.100633636 0.028794346 -0.1152934 -0.12226906 -0.27716142 0.1681798 -0.01245777 -0.035983495
-0.16984388 0.29161468 -0.08163897 -0.2714347 -0.2885263 0.188015 -0.2120379 -0.090700045
0.27431133 -0.022577211 0.1981181 -0.098557 0.09910185 -0.12246435 -0.13828291 -0.0582511
-0.19291332 -0.19549957 0.10608505 -0.22268593 0.30216375 0.2106827 -0.15995106 0.291349
0.2695201 -0.11381125 0.23938225 -0.21555412 -0.067347854 0.22904526 -0.24743466 0.21944553
0.18051153 0.17902224 0.17206831 0.14092216 -0.010958829 0.00038844554 0.03945454 0.15223707
0.21147178 -0.09328095 0.22527082 -0.22424279 0.27025545 0.082123436 -0.05460246 0.2389058
0.2695761 -0.27108538 -0.25306976 0.10011842 -0.31269276 -0.2832333 -0.093793064 0.23764805
0.11275443 -0.1515769 -0.264129 -0.3043279 -0.23054865 -0.16640507 -0.048653945 0.23796861
-0.26281917 0.15099344 -0.1455745 -0.24785504 0.009329698 0.33006218 -0.053813647 -0.061478615
-0.27422056 -0.11298743 0.0207438 0.35506848 0.30490285 0.16776632 0.046501517 -0.029812774
-0.15104167 0.11379907 -0.33894998 -0.084815055 -0.19573465 0.29122022 0.28765187 -0.044372033
00000000: 0bbd a53e 6d12 853e b6f2 303d 092b f2bd
00000010: 2d51 7ebe c009 c53e 381a 7dbe 0f2b 90be
00000020: 252d dbbc 1909 1cbe 745c 32be 587c ba3d
00000030: 4648 223b 91de e63d f74f a83e 8cfc a43e
00000040: ba80 a33e 622d 8a3c 0205 0fbe 7932 f6bb
00000050: 2e8d bebd 4fd7 353d 52f8 27be 340e c7bd
00000060: c5c2 223d 8bf5 153d a2bd 64be 51ae b53e
00000070: e472 4abc 7865 04be 31fa 893e ea97 0a3e
00000080: cd9d 55be 348d a53e cd1b 713d 2863 60bd
00000090: 4de6 d7bc 6397 36bd 2e73 0c3d 196e 61be
000000a0: b8c0 3e3e 7fc8 c03d 2fba 11be 237f b9bd
000000b0: 4c25 2fbe 2e5d 213e d8c5 cebc fcc0 533d
000000c0: bdbd 7fbd b4e5 053e 937a fd3c 2c16 9d3e
000000d0: 7b48 063e eb68 4f3e cba3 b83e 0b6f f03d
000000e0: ba61 273e e412 e43d 07b9 fbbc 1c9a 3a3d
000000f0: 2dd9 613d 19f1 acbd a267 01bd 359f 3bbb
00000100: d8f2 303e 69d8 39be e024 d7ba 81fc ab3e
00000110: 77cf 393e 0b62 7cbd 9252 99bc 487d 19bc
00000120: 80b5 16be dacf 4e3e d01b f2bd 4a78 2d3e
00000130: bb15 a6be a33a 6fbe 50c1 19be 94fd d03d
00000140: d090 fc3d ff41 82be 074f 893e e455 b23e
00000150: 77f4 3cbd 650e 283e ca5a 39bd a435 a23e
00000160: 2fe6 243e 9454 5b3e 4a12 d9bd 7cc4 11be
00000170: bafc 92bd e4c0 89be 2e7b 653d 3686 0f3e
00000180: a0d2 7f3e dbc3 3ebe e262 33be 522b ed3c
00000190: a8c8 1cbe 28b3 573c 7ce3 6ebe 4197 513e
000001a0: 5caa 543d a027 93be d216 46be 5d61 a9bb
000001b0: 2f76 b0be bffe 7fbe 4b93 8bbd 8795 8fbe
000001c0: 9280 90be bf85 3bbe 5b9b 933d 9054 cbbc
000001d0: 55ca 45be 6a11 3f3e 041c 8dbe 3e38 35be
000001e0: 5378 8bbd 7cbc 943e 6c8b 2b3e 8e0a 9b3c
000001f0: b278 68be d7f2 9c3e 6894 a63e 54e4 59be
00000200: 7ed9 8dbe e6a5 043d 7251 763e 5403 de3d
00000210: 9e57 ce3d 8fe7 013e 9df6 0e3e 1f5f 023d
00000220: c1fc 3d3e 8472 28be 07b6 92be c6e9 873e
00000230: 8bc0 f6ba b84b 9c3d 0100 19be be98 95be
00000240: aa6f 5f3e d515 d43d 82c4 933e 1bed 7eba
00000250: 1f0c ae3e 6c5e 1a3d 8fe6 673e 2951 703e
00000260: 6bb6 273e 971f aabe b4d3 a6be 9ae2 af3d
00000270: f9e6 85be a5ab 96be c366 373e 3cfc 0f3e
00000280: 0219 cebd 1fe2 eb3c f21e ecbd 3368 fabd
00000290: 1ae8 8dbe 5337 2c3e ad1b 4cbc 6e63 13bd
000002a0: 8eeb 2dbe 854e 953e 5532 a7bd 7df9 8abe
000002b0: b8b9 93be 0187 403e 7720 59be f2c0 b9bd
000002c0: 8972 8c3e d8f3 b8bc 79df 4a3e 41d8 c9bd
000002d0: e9f5 ca3d 97ce fabd 099a 0dbe b598 6ebd
000002e0: 128b 45be 0a31 48be 1e43 d93d c807 64be
000002f0: 35b5 9a3e 35bd 573e 36ca 23be b22b 953e
00000300: 8afe 893e df15 e9bd 9f20 753e 38ba 5cbe
00000310: aced 89bd d78a 6a3e 835f 7dbe 54b6 603e
00000320: 04d8 383e 9b51 373e ad32 303e e64d 103e
00000330: a98c 33bc 47a8 cb39 159b 213d 09e4 1b3e
00000340: 0f8c 583e 150a bfbd 65ad 663e e79f 65be
00000350: ec5e 8a3e 5530 a83d d4a6 5fbd b9a3 743e
00000360: e105 8a3e b4cb 8abe 5c92 81be e30a cd3d
00000370: 4419 a0be f503 91be 9416 c0bd 035a 733e
00000380: cbeb e63d fa36 1bbe eb3b 87be ded0 9bbe
00000390: f214 6cbe 1766 2abe 5c49 47bd 0bae 733e
000003a0: 3c90 86be 069e 1a3e 7b11 15be b6cd 7dbe
000003b0: 97db 183c e9fd a83e b36b 5cbd 00d1 7bbd
000003c0: a366 8cbe f465 e7bd e7ee a93c 89cb b53e
000003d0: 3a1c 9c3e efca 2b3e 6078 3e3d eb39 f4bc
000003e0: abaa 1abe 7d0f e93d da8a adbe 84b3 adbd
000003f0: aa6e 48be d11a 953e 1b47 933e 73bf 35bd

conv1.bias f4 [32]
-0.18533266 0.31775633 -0.26985034 -0.02164424 0.2761804 -0.23752612 -0.069210365 0.3296985
-0.33233964 0.11044973 0.24136104 0.290458 -0.20420574 0.20030528 -0.12531526 0.2739089
0.046893608 -0.2908373 0.15822113 0.1514859 0.20982729 0.30499342 0.0951433 0.05692
0.1466704 0.3121413 0.25581005 -0.25081784 0.026436167 0.1960936 0.27291358 -0.16381468
00000000: d8c7 3dbe f5b0 a23e d329 8abe 434f b1bc
00000010: 8467 8d3e 0c3a 73be 2abe 8dbd 3ece a83e
00000020: 6c28 aabe 7833 e23d 5927 773e e9b6 943e
00000030: 4f1b 51be d41c 4d3e a552 00be ca3d 8c3e
00000040: 8313 403d a0e8 94be b804 223e 1f1f 1b3e
00000050: f7dc 563e 1928 9c3e 7eda c23d f224 693d
00000060: c430 163e fcd0 9f3e 89f9 823e 326b 80be
00000070: a990 d83c c3cc 483e 54bb 8b3e 09bf 27be

fc1.weight f4 [128, 1568]
0.0051020603 -0.0046933116 0.03357261 0.039425038 0.009248738 -0.0005955038 0.013617502 0.0012259845
0.07139096 0.0062681246 -0.0058295275 0.02913803 0.025149496 0.023574488 -0.0027017416 0.011881592
0.015551858 0.011378083 -0.0013065091 0.019371426 0.018546047 0.0065633273 0.036827195 0.029245188
0.050239984 0.020313391 0.03466218 0.028504472 0.023117555 -0.015221115 -0.0041773138 0.03190973
0.018846104 0.0022516986 0.010695403 -0.022494826 0.013259153 0.025662549 -0.007876332 -0.004682295
0.14934346 0.02426849 0.01583869 0.024625752 0.020683113 0.012256785 0.013343815 -0.0007510925
-0.017873652 -0.00046023144 0.0036362081 0.0020456053 -0.022567518 0.0049215876 -0.0023379643 0.0027205027
0.018371034 -0.014564749 0.0025264618 0.0016046653 -0.013958428 0.0054291356 -0.006410262 0.019953575
-0.022670032 -0.021721203 0.008291044 0.02191403 0.0009317437 -0.00901288 0.0029183773 -0.019664774
-0.023317311 -0.021648534 0.0018969282 -0.020663926 0.013027138 -0.013552158 0.019673085 0.01442272
-0.016199963 0.024870237 0.0015211109 -0.004864815 0.0075424956 0.0058410955 -0.0117347045 0.017928602
0.031657953 -0.00661278 0.0056379624 0.022249723 0.00933131 0.012722512 -0.0059964736 -0.0165495
0.019711932 0.02462356 -0.01581348 -0.0073479936 -0.016440157 -0.016479835 -0.020676738 0.024812594
-0.021472037 -0.02358668 0.008306645 -0.010072567 0.023602601 -0.005779056 0.014031325 0.007427484
0.015919812 -0.008899009 -0.013288618 -0.003890542 0.010369923 0.01878259 0.023873996 0.023483567
-0.006482996 0.030283418 0.020595344 -0.023400301 0.019523509 -0.02521956 -0.01285064 -0.024002127
-0.014377157 -0.0036329646 0.009615444 -0.023983212 0.02212578 0.022809617 -0.011000081 0.008139413
-0.011496655 0.018608943 0.0144014135 0.000977749 -0.00788855 -0.0024340078 0.012974992 0.00673905
-0.013399097 -0.017046073 -0.023563882 0.029806737 -0.014998437 0.022125121 0.022121664 0.017157348
-0.0093158465 -0.01136824 -0.0032930847 -0.016655827 -0.020085586 -0.005999443 -0.009319512 -0.017206421
-0.011657461 0.0012876526 -0.00089712295 -0.013143963 -0.018120306 0.0070457547 -0.0051740934 -0.013209664
0.0030337702 -0.02426804 0.007268455 0.0047859596 -0.027056176 0.009928349 0.011892377 0.0036322342
0.004560004 -0.022060355 -0.000561239 -0.017293306 -0.0033301313 -0.019957492 0.003876521 0.013238194
-0.01827214 0.0011997198 0.024436705 0.02307064 -0.008045253 0.00554519 0.0042418703 -0.01311476
-0.018296307 -0.0054650283 0.018506104 0.0043594954 0.012912288 0.003520667 0.031142212 0.008398748
-0.004984604 0.021637177 0.037727937 -0.018830935 0.018007386 0.025219146 0.042678963 0.033099007
0.0043064696 0.02138278 -0.0069093085 -0.003219023 0.039713155 -0.003844435 0.03250074 0.0005218166
0.042460706 -0.0075220037 -0.004346021 0.00936292 0.02666675 0.03982106 0.034670174 0.0067462
-0.020609824 0.020219231 0.013012247 0.01370418 0.015779188 0.020544846 0.026284482 0.012300666
0.008549457 0.02239922 -0.014137426 -0.016462026 0.030709408 0.015702609 0.002446347 0.018396558
0.021223271 -0.009093736 -0.0025138909 -0.006565581 -0.007321736 -0.024760574 -0.023810655 0.0040957937
-0.024936268 -0.025376663 -0.010981064 0.0065262998 0.0074655637 0.014924986 0.0108522475 -0.015568695
00000000: 2f2f a73b 5aca 99bb 6f83 093d 267c 213d
00000010: 0588 173c 951b 1cba f11b 5f3c 37b1 a03a
00000020: 6c35 923d d764 cd3b 9f05 bfbb e1b2 ee3c
00000030: 5106 ce3c 491f c13c b40f 31bb 02ab 423c
00000040: 38cd 7e3c 246b 3a3c 2c3f abba d3b0 9e3c
00000050: e1ed 973c 2e11 d73b 1dd8 163d 9b93 ef3c
00000060: 71c8 4d3d 4568 a63c eef9 0d3d 3682 e93c
00000070: 0761 bd3c fc61 79bc d9e1 88bb c7b3 023d
00000080: 2563 9a3c 3c91 133b c63b 2f3c 1247 b8bc
00000090: eb3c 593c 443a d23c bb0b 01bc f06d 99bb
000000a0: 7eed 183e b6ce c63c 24c0 813c f2bb c93c
000000b0: a26f a93c afd0 483c 04a0 5a3c f7e4 44ba
000000c0: c46b 92bc 384b f1b9 734d 6e3b 900f 063b
000000d0: 84df b8bc 4545 a13b 8838 19bb 764a 323b
000000e0: da7e 963c fca0 6ebc ff92 253b a253 d23a
000000f0: e4b1 64bc e4e6 b13b 2d0d d2bb ae75 a33c
00000100: 81b6 b9bc aaf0 b1bc 29d7 073c 0d85 b33c
00000110: 4340 743a c2aa 13bc 3f42 3f3b 0518 a1bc
00000120: f203 bfbc 4458 b1bc 59a2 f83a 6547 a9bc
00000130: c76f 553c df09 5ebc 7329 a13c 464d 6c3c
00000140: c9b5 84bc abbc cb3c 0360 c73a 0769 9fbb
00000150: 0a27 f73b a966 bf3b eb42 40bc 01df 923c
00000160: c5ab 013d 05b0 d8bb a8be b83b 0d45 b63c
00000170: 5ae2 183c 1572 503c 117e c4bb d192 87bc
00000180: eb7a a13c 59b7 c93c 458b 81bc 70c7 f0bb
00000190: 82ad 86bc b800 87bc 4362 a9bc c843 cb3c
000001a0: 20e6 afbc da38 c1bc 9818 083c 6807 25bc
000001b0: 3e5a c13c 3c5e bdbb a4e3 653c 4062 f33b
000001c0: 446a 823c 26cd 11bc 81b8 59bc 77f8 7ebb
000001d0: 9ce6 293c f2dd 993c 6693 c33c 9c60 c03c
000001e0: 506f d4bb ee14 f83c 91b7 a83c fdb1 bfbc
000001f0: c4ef 9f3c 4099 cebc 7e8b 52bc 1ca0 c4bc
00000200: 2b8e 6bbc 0817 6ebb 188a 1d3c 7178 c4bc
00000210: 2041 b53c 3cdb ba3c af39 34bc 2c5b 053c
00000220: 775c 3cbc c871 983c e8f3 6b3c d027 803a
00000230: fa3e 01bc e083 1fbb 1095 543c 40d3 dc3b
00000240: e387 5bbc 35a4 8bbc 0b09 c1bc 422d f43c
00000250: 01bc 75bc be3f b53c 7e38 b53c 918d 8c3c
00000260: 7ea1 18bc db41 3abc cbd0 57bb cd71 88bc
00000270: 878a a4bc fa96 c4bb deb0 18bc 7bf4 8cbc
00000280: effe 3ebc 74c6 a83a e72c 6bba c759 57bc
00000290: 0971 94bc 13e0 e63b 718b a9bb 596d 58bc
000002a0: 38d2 463b c5cd c6bc 382c ee3b 8ad3 9c3b
000002b0: eaa4 ddbc 84aa 223c 3fd8 423c c70a 6e3b
000002c0: 166c 953b ebb7 b4bc 1d20 13ba b1aa 8dbc
000002d0: 553e 5abb e57d a3bc 3b0d 7e3b 03e5 583c
000002e0: 74af 95bc eb3f 9d3a 7c2f c83c a4fe bc3c
000002f0: 3dd0 03bc 6db4 b53b 63ff 8a3b 4adf 56bc
00000300: 23e2 95bc fb13 b3bb 1d9a 973c 19da 8e3b
00000310: 108e 533c feba 663b f41d ff3c e79a 093c
00000320: e455 a3bb 7340 b13c 9c88 1a3d 5543 9abc
00000330: 3a84 933c 6298 ce3c 23d0 2e3d d392 073d
00000340: 491d 8d3b f12a af3c 7b67 e2bb 3ff6 52bb
00000350: 43aa 223d ebf2 7bbb 7f1f 053d 85ca 083a
00000360: 47eb 2d3d 247b f6bb 1169 8ebb ef66 193c
00000370: 3a74 da3c 681b 233d 5002 0e3d 3a0f dd3b
00000380: efd5 a8bc cda2 a53c 5231 553c 7f87 603c
00000390: 5b43 813c aa4d a83c 8e52 d73c bc88 493c
000003a0: 0613 0c3c 927e b73c aaa0 67bc 5fdb 86bc
000003b0: 4c92 fb3c c2a2 803c e452 203b 61b4 963c
000003c0: 6ddc ad3c e5fd 14bc 17c0 24bb 1624 d7bb
000003d0: 2ceb efbb b0d6 cabc 900e c3bc 0236 863b
000003e0: 2547 ccbc b8e2 cfbc ece9 33bc 92da d53b
000003f0: b0a1 f43b ee87 743c a0cd 313c d713 7fbc

fc1.bias f4 [128]
0.0025164983 -0.014316843 0.0012972014 0.01206441 -0.0030282133 -0.0042067138 -0.015037161 -0.015553577
0.0113388235 -0.02357388 0.03036097 0.016722556 0.01007503 -0.019238839 0.002787536 -0.0059791063
-0.011939781 0.024960564 -0.008811194 0.024438806 0.011781961 0.005644634 -0.02182706 0.030000778
-0.009209461 -0.0119675 -0.004835002 0.017315136 0.018796578 -0.004302077 0.02794135 -0.011932282
-0.0029357937 0.018150754 -0.008265188 -0.0006909799 0.020349786 -0.0056210677 0.019145038 -0.015978882
-0.022156082 0.020391349 0.0015445659 -0.0057632653 0.009744904 -0.01650744 0.026870415 0.025387025
-0.026146429 0.013980377 -0.014021769 -0.017086554 -0.008561118 -0.025943428 -0.02104277 -0.007408047
0.005112483 0.024745623 0.015571105 0.0020779998 0.0032922402 0.0036363695 0.028674157 0.023082692
-0.008023984 0.018537093 0.0042981296 -0.007492042 -0.00476061 0.011047903 0.024186362 0.0029977593
-0.020273628 0.020239938 -0.00815465 -0.015015685 0.015514871 0.0053390516 0.026225224 -0.01424495
0.01838292 -0.005979142 0.022816766 -0.014800125 -0.0067939158 -0.010209196 -0.0146358125 0.0077150995
0.0129653495 -0.02314017 0.0025187347 0.0139181595 0.013665163 -0.008391764 -0.0060447697 0.011680712
-0.013642808 0.028327797 0.01621653 0.023905763 0.0138913505 0.00030480197 0.02385717 -0.007371264
-0.0072791483 -0.010191526 0.0037461831 -0.0059942086 -0.008066644 -0.009432156 -0.019380927 0.018875666
-0.023372402 0.025742112 -0.006311009 0.008964984 -0.013929573 2.06884e-05 -0.008758164 0.02106319
0.015168099 0.0061765052 0.0009565558 -0.019829186 -0.013920656 0.014324649 0.00012531217 -0.006387644
00000000: d6eb 243b 3191 6abc db06 aa3a cea9 453c
00000010: fd74 46bb 79d8 89bb 6d5e 76bc 6ed4 7ebc
00000020: 79c6 393c 021e c1bc 92b7 f83c befd 883c
00000030: bd11 253c c59a 9dbc 18af 363b 61ec c3bb
00000040: 129f 43bc 197a cc3c d45c 10bc e433 c83c
00000050: 2009 413c 9ff6 b83b aace b2bc 31c4 f53c
00000060: 47e3 16bc 5513 44bc f06e 9ebb 79d8 8d3c
00000070: 48fb 993c 70f8 8cbb 42e5 e43c 9e7f 43bc
00000080: 7266 40bb e4b0 943c b66a 07bc e022 35ba
00000090: 98b4 a63c ef30 b8bb 0ed6 9c3c 25e6 82bc
000000a0: ac80 b5bc c20b a73c 0873 ca3a c6d9 bcbb
000000b0: 17a9 1f3c 9c3a 87bc 581f dc3c 73f8 cf3c
000000c0: 0931 d6bc f40d 653c 90bb 65bc 1af9 8bbc
000000d0: ee43 0cbc 5087 d4bc e361 acbc 34bf f2bb
000000e0: 9e86 a73b 55b7 ca3c f31d 7f3c 0d2f 083b
000000f0: a0c2 573b 2850 6e3b 11e6 ea3c ea17 bd3c
00000100: 0777 03bc 1adb 973c 53d7 8c3b ce7f f5bb
00000110: e4fe 9bbb 4402 353c 7a22 c63c 0e76 443b
00000120: e114 a6bc 3ace a53c 159b 05bc 5904 76bc
00000130: 1632 7e3c 36f3 ae3b 48d6 d63c a763 69bc
00000140: c797 963c aeec c3bb 3aea ba3c 397c 72bc
00000150: 7f9f debb 7944 27bc 0ccb 6fbc f2ce fc3b
00000160: 9e6c 543c 7490 bdbc 5b11 253b fe08 643c
00000170: d9e3 5f3c 9c7d 09bc 3413 c6bb 7560 3f3c
00000180: 1686 5fbc b20f e83c 87d8 843c 05d6 c33c
00000190: 8c98 633c d4cd 9f39 1d70 c33c a58a f1bb
000001a0: ec85 eebb 5cfa 26bc 8682 753b 116b c4bb
000001b0: f529 04bc 5489 1abc c0c4 9ebc 24a1 9a3c
000001c0: 7b77 bfbc 1fe1 d23c 95cc cebb dee1 123c
000001d0: dd38 64bc 008c ad37 677e 0fbc b68c ac3c
000001e0: 9e83 783c 4864 ca3b 60c1 7a3a d170 a2bc
000001f0: 7713 64bc efb1 6a3c 3b66 0339 714f d1bb

fc2.weight f4 [2, 128]
-0.104380384 0.08795123 0.025702912 -0.0028133607 0.027043147 -0.053310975 0.0048608705 0.101382904
0.013809916 0.07003283 -0.033824377 0.03078197 -0.11289457 -0.03257767 0.038078375 -0.044100493
-0.047458943 -0.050226726 -0.06639292 -0.018331036 -0.04997573 0.01656998 0.08224738 -0.084575325
0.08952125 0.09523843 0.080701336 -0.03632205 0.021119028 -0.03144894 0.016385278 -0.018668184
0.047867745 0.015509069 0.08510111 0.06406627 0.0663128 -0.102801085 0.09636652 -0.07336847
0.04973939 0.08081699 -0.09455499 -0.06523755 -0.02255809 -0.05037226 0.008965705 0.010742984
-0.02233574 0.07651278 0.023429208 0.0148135265 -0.06395816 -0.0322966 0.011889979 -0.041978724
0.07047727 -0.0852378 -0.093141265 0.09801833 0.05378016 0.07143959 -0.058777362 -0.022244781
-0.030254979 -0.057984006 0.071148254 -0.004348352 -0.047630046 0.08500739 0.070518784 -0.063307285
-0.052519683 -0.003960513 -0.017675025 -0.009140147 -0.021744289 0.09454273 0.04694925 0.048725285
0.018533047 -0.087565914 -0.053682808 -0.08660931 -0.052684687 -0.09775777 -0.07983184 0.026914472
-0.022541154 0.04151175 -0.08968059 0.024390405 -0.102347836 -0.012595198 0.0015271306 0.050297547
-0.08363757 0.07589811 -0.046068292 -0.10712295 -0.024263047 0.036966734 -0.018067036 -0.08152864
-0.05877568 0.08956158 -0.011521961 0.07442064 -0.094973356 -0.08113326 -0.063016124 -0.04554121
-0.017540341 0.103457384 -0.0019984879 -0.042699028 -0.015036475 -0.072751455 0.08861779 -0.07866096
-0.25490186 0.003401424 0.082991414 0.10035916 0.02097531 -0.09477944 -0.03451959 -0.099315666
0.05479531 -0.04477996 -0.05408054 0.08984224 -0.112376496 -0.11957863 0.07940204 -0.08613339
-0.056013457 0.07687434 0.025940474 -0.02992693 -0.031920273 0.042044036 0.0572202 -0.097844385
-0.02660795 -0.11277708 0.08283042 -0.0029916763 -0.045666605 -0.05257704 0.051974233 0.09890065
-0.008814344 -0.032714922 0.023061331 0.05517774 0.061329283 0.06875037 -0.08014223 0.105079085
-0.07199027 -0.047055565 -0.04127526 -0.040262822 -0.017618038 0.06866102 -0.04882546 -0.018939884
-0.0058267307 -0.018477619 -0.031792026 0.06392186 0.0627702 -0.068102226 -0.08130738 -0.098094545
0.007630499 0.05282817 -0.07742437 -0.052999973 0.017981183 -0.04387976 -0.0988 0.007948704
0.06903746 -0.014010431 0.03625714 -0.08515618 0.074560665 0.087278 -0.0069482964 -0.021441706
0.02070421 -0.015044937 -0.077870004 0.059238978 -0.03468378 -0.06499919 -0.071225815 -0.057642177
0.071770534 0.0747926 -0.064344905 0.012981305 0.06637405 -0.09886736 -0.07743562 -0.060022343
-0.089991145 -0.011217554 0.077621385 -0.013013984 0.09813893 0.036227126 -0.06641011 -0.059721187
-0.02475179 -0.0033899248 -0.024922771 -0.031715292 0.07206698 -0.06386984 -0.057264954 -0.010410465
-0.062253453 -0.022643225 -0.049318265 0.00063677266 -0.04714475 -0.06290906 -0.09392122 -0.026595553
-0.052218817 -0.044147253 -0.06324135 -0.07198857 0.036090635 -0.0316896 0.00057178736 -0.053872786
-0.0512539 -0.08433601 0.06412812 0.016936742 0.06356931 0.0016723648 -0.06254642 0.06647193
0.21494699 0.07783525 0.012504578 -0.07808786 0.07838638 0.10135803 0.100824334 0.017163847
00000000: 62c5 d5bd c61f b43d ea8e d23c 5c60 38bb
00000010: 9789 dd3c 9c5c 5abd f047 9f3b d7a1 cf3d
00000020: fc42 623c 5f6d 8f3d 6e8b 0abd 782a fc3c
00000030: 4535 e7bd 2a70 05bd 12f8 1b3d b8a2 34bd
00000040: 4f64 42bd 8aba 4dbd 03f9 87bd f82a 96bc
00000050: 5ab3 4cbd c4bd 873c 5071 a83d d435 adbd
00000060: eb56 b73d 5e0c c33d be46 a53d 6ec6 14bd
00000070: d001 ad3c 9bd0 00bd 6b3a 863c 05ee 98bc
00000080: f810 443d c019 7e3c 7e49 ae3d 2d35 833d
00000090: 01cf 873d 6089 d2bd cf5b c53d 3542 96bd
000000a0: 88bb 4b3d 6183 a53d 0ca6 c1bd 449b 85bd
000000b0: becb b8bc 2553 4ebd e4e4 123c 5703 303c
000000c0: 71f9 b6bc bbb2 9c3d 9cee bf3c 6fb4 723c
000000d0: 7ffc 82bd 7149 04bd 30ce 423c e2f1 2bbd
000000e0: 6356 903d 2891 aebd d9c0 bebd d6bd c83d
000000f0: 9648 5c3d eb4e 923d 88c0 70bd b03a b6bc
00000100: 4ad9 f7bc a380 6dbd 2db6 913d 9f7c 8ebb
00000110: b917 43bd 5b18 ae3d 276c 903d 40a7 81bd
00000120: e11e 57bd 31c7 81bb 37cb 90bc 8ec0 15bc
00000130: 1421 b2bc 9e9f c13d db4d 403d 2a94 473d
00000140: 9ed2 973c c255 b3bd 81e2 5bbd 3960 b1bd
00000150: e6cb 57bd 3a35 c8bd e07e a3bd bd7b dc3c
00000160: 3aa8 b8bc 3a08 2a3d 75aa b7bd 63ce c73c
00000170: be9b d1bd 175c 4ebc 002a c83a cd04 4e3d
00000180: 2d4a abbd 7870 9b3d 1bb2 3cbd 4763 dbbd
00000190: 4cc3 c6bc 6e6a 173d 5201 94bc 7df8 a6bd
000001a0: c4be 70bd 106c b73d 9bc6 3cbc d969 983d
000001b0: 6481 c2bd 3229 a6bd 990e 81bd 6b89 3abd
000001c0: c3b0 8fbc 77e1 d33d 10f9 02bb 2de5 2ebd
000001d0: 8c5b 76bc b7fe 94bd 3e7d b53d ff18 a1bd
000001e0: 7f82 82be 6dea 5e3b 67f7 a93d 1a89 cd3d
000001f0: 6ad4 ab3c b91b c2bd 6a64 0dbd 0366 cbbd
00000200: 0c71 603d 316b 37bd 8e83 5dbd 35ff b73d
00000210: a625 e6bd a4e5 f4bd 899d a23d b466 b0bd
00000220: 5e6e 65bd 4b70 9d3d 1e81 d43c 5229 f5bc
00000230: d5be 02bd 5e36 2c3d ba5f 6a3d a362 c8bd
00000240: eaf8 d9bc abf7 e6bd ffa2 a93d 0010 44bb
00000250: e80c 3bbd 065b 57bd efe2 543d 6d8c ca3d
00000260: 0a6a 10bc 1500 06bd 1eeb bc3c 0e02 623d
00000270: 6a34 7b3d fecc 8c3d 9c21 a4bd b433 d73d
00000280: a26f 93bd 56bd 40bd 3f10 29bd a1ea 24bd
00000290: b453 90bc 269e 8c3d 35fd 47bd d127 9bbc
000002a0: 29ee bebb 605e 97bc 5b38 02bd 77e9 823d
000002b0: aa8d 803d 2e79 8bbd 7c84 a6bd cbe5 c8bd
000002c0: 4409 fa3b 5a62 583d ab90 9ebd 8016 59bd
000002d0: 464d 933c 43bb 33bd a857 cabd 483b 023c
000002e0: 8363 8d3d 028c 65bc 5e82 143d 5d66 aebd
000002f0: 43b3 983d cfbe b23d 89ae e3bb 84a6 afbc
00000300: e09b a93c 0a7f 76bc 4f7a 9fbd 92a4 723d
00000310: 9410 0ebd 4c1e 85bd d7de 91bd 341a 6cbd
00000320: 6efc 923d dd2c 993d 43c7 83bd 8aaf 543c
00000330: 1eef 873d f87a cabd 9196 9ebd fdd9 75bd
00000340: 474d b8bd d5c9 37bc f6f7 9e3d 9b38 55bc
00000350: 10fd c83d e562 143d 0602 88bd 349e 74bd
00000360: 44c4 cabc 8029 5ebb d72a ccbc e5e7 01bd
00000370: da97 933d 31ce 82bd a88e 6abd a890 2abc
00000380: 7afd 7ebd 497e b9bc f301 4abd 17ed 263a
00000390: da1a 41bd 77d6 80bd c559 c0bd ebde d9bc
000003a0: 66e3 55bd c0d3 34bd ae84 81bd be6e 93bd
000003b0: c6d3 133d f4cc 01bd 00e4 153a b6a9 5cbd
000003c0: 9cef 51bd 5cb8 acbd 9b55 833d ecbe 8a3c
000003d0: a030 823d 4033 db3a 5618 80bd 6f22 883d
000003e0: 101b 5c3e 1668 9f3d 00e0 4c3c 87ec 9fbd
000003f0: 0a89 a03d cd94 cf3d fd7c ce3d 329b 8c3c

fc2.bias f4 [2]
-0.075368434 -0.0048270407
00000000: c45a 9abd 272c 9ebb
